model/keypoint_classifier/keypoint_classifier.tflite (tflite, 7512 bytes, 6 tensors)

sequential/dense/BiasAdd/ReadVariableOp f4 [20]
-0.29890892 -0.8939132 -0.095141284 0.22913378 -0.56530696 0.32044315 -0.77535504 -0.06092021
0.41140637 -1.2475653 0.31485885 -0.007870622 -0.042640608 -0.7442201 -1.2181218 -0.38778993
-0.40276212 -0.31016022 -1.1172953 0.21982361
00000000: 970a 99be 7fd7 64bf 6fd9 c2bd 0ca2 6a3e
00000010: f5b7 10bf 2011 a43e ab7d 46bf 7887 79bd
00000020: dba3 d23e 38b0 9fbf 2e35 a13e c8f3 00bc
00000030: eba7 2ebd 3585 3ebf 6aeb 9bbf 678c c6be
00000040: d636 cebe 52cd 9ebe 8803 8fbf 7119 613e

sequential/dense_2/BiasAdd/ReadVariableOp f4 [26]
0.004427414 -0.5230748 -1.2908311 1.0619581 0.7604316 -0.006522154 0.6471691 0.6669215
0.91728586 -0.4935287 0.31431752 -0.15401387 -0.3301427 0.05392937 -0.7089217 -0.29696462
-0.07656482 0.33253074 0.20028791 -0.10266886 0.0057876664 0.29478848 -0.5709507 0.35395747
-0.8765939 -0.55870074
00000000: d713 913b 3be8 05bf f439 a5bf 3eee 873f
00000010: a5ab 423f cbb7 d5bb e0ac 253f 5ebb 2a3f
00000020: 3fd3 6a3f cbaf fcbe 3aee a03e d0b5 1dbe
00000030: 7708 a9be 0be5 5c3d e47b 35bf bf0b 98be
00000040: 04ce 9cbd 7841 aa3e 4618 4d3e 0d44 d2bd
00000050: 77a6 bd3b 84ee 963e d329 12bf ea39 b53e
00000060: 7568 60bf 0307 0fbf

sequential/dense_1/BiasAdd/ReadVariableOp f4 [10]
0.72662854 0.73914903 1.2973922 0.30997872 -0.4973838 0.6025435 -0.35095078 0.5642706
-0.103195295 0.24074559
00000000: 5404 3a3f df38 3d3f f310 a63f 88b5 9e3e
00000010: 17a9 febe 4a40 1a3f d2af b3be 0a74 103f
00000020: 0e58 d3bd 0386 763e

sequential/dense/MatMul f4 [20, 42]
-0.2803767 0.30606478 0.059092354 -1.5216477 -0.08247784 -0.24309559 -0.16122065 -0.062949955
0.04232465 0.0129254395 -0.15739961 0.12695241 -0.117473796 0.11435851 0.03867117 0.044685535
0.06960736 -0.16468367 -0.26601428 0.20411725 -0.07961789 0.16689098 0.07562402 0.10867018
0.3276203 0.13398015 -0.087077886 0.22233717 -0.024456974 0.14473751 0.5082058 0.031705964
0.8014494 -0.09257035 0.3657178 0.23854896 0.37454316 0.17500636 0.736752 -0.14415239
1.2045791 -0.5494652 -0.09858835 0.058442384 0.0030841487 0.36519355 -0.07433035 0.20134164
-0.01759119 0.24118076 -0.011379859 0.21634188 -0.038951766 0.15683176 -0.027621007 0.07554495
-0.0023945891 0.06993662 0.020643132 0.007019837 -0.0406439 0.11390987 -0.032184415 0.08381913
0.014919069 -0.42339328 0.05029402 -0.10018016 -0.046098907 0.13308556 -0.031051748 0.12270916
-0.083137594 -0.351517 -0.115031496 -1.3053448 -0.00799351 0.19937155 0.06841973 0.09652451
-0.0032725465 -0.15887056 0.08259821 -1.4923204 -0.24930534 0.07328662 0.014048476 0.8998971
0.017228791 0.50589126 0.007825239 0.28106537 -0.012508103 0.19915572 0.029637372 0.20957404
-0.006789611 0.15108976 -0.038648095 0.09575717 -0.012401988 -2.3140163 0.012288354 0.15587775
0.0026656147 0.13701358 -0.02786876 0.150063 -0.024723005 0.12910976 -0.038274616 0.10350076
0.007877876 0.11187612 0.09003826 0.14712058 0.0984881 0.11607951 -0.068076566 0.038339555
-0.04452076 0.092309214 0.008127778 0.065724604 0.0294296 0.023863753 0.27245748 -0.27488258
0.008061559 -0.13316606 0.14528455 -0.03474847 0.012550152 -0.05743935 0.035471365 -0.17922214
0.042407803 -0.21253711 0.027555943 -0.14491996 -0.0074300957 -0.20592925 0.07753352 -0.10267193
-0.017840022 -0.23388374 0.013353171 0.21020861 -0.04200238 0.60936785 -0.0034268699 1.311386
-0.039015777 -0.18243064 0.041842934 0.13657935 0.14084244 0.72510546 0.13220704 1.8294271
-0.07013321 -0.09066663 -0.11066755 0.2187441 0.13081986 0.4926394 0.15206522 1.211885
-0.03439945 -0.2897924 -0.047725588 0.15259221 -0.08935649 0.26760963 -0.16545711 0.37281668
-0.46185157 0.36827862 0.36543792 0.15057994 0.18629465 0.10138122 0.061444145 -0.06524654
-0.14660859 -0.2834809 0.32004574 0.24017552 0.003392591 0.15464109 -0.5240389 -0.05961712
-0.8121249 -0.0631525 0.10988765 0.30776387 -0.14593194 0.21305455 -0.78225857 -0.18597259
-1.1548244 -0.4410401 -0.18391237 0.3969656 -0.15116584 0.22374749 -0.60238683 0.03159864
-0.9446167 0.16628288 -0.26107514 -0.11139125 0.018350419 1.2215995 0.28006777 0.22428963
0.34103733 0.12240794 0.3170807 0.3748714 0.1849098 -0.32556558 0.05397631 0.14404663
-0.02288359 0.3527746 -0.12671626 0.33863175 0.17309017 -0.4900242 -0.01983464 0.22295034
-0.09349514 0.50088096 -0.17656519 0.67521054 0.046836648 -0.5104647 -0.02204619 -0.01655624
-0.15794836 0.29764372 -0.14809817 0.61036956 0.08615558 -0.85748833 0.006731501 -0.064745896
-0.15998763 0.31401715 -0.02584842 0.41092312 0.039702654 0.13218433 -0.061658002 0.839697
00000000: 898d 8fbe 86b4 9c3e d30a 723d 5ac5 c2bf
00000010: 24ea a8bd 0dee 78be 0717 25be e8eb 80bd
00000020: 9d5c 2d3d 39c5 533c 5d2d 21be d0ff 013e
00000030: 1a96 f0bd cb34 ea3d a965 1e3d 2e08 373d
00000040: 4e8e 8e3d d6a2 28be 0633 88be 1d04 513e
00000050: b40e a3bd 78e5 2a3e c4e0 9a3d 798e de3d
00000060: d9bd a73e 1832 093e e455 b2bd 5bac 633e
00000070: fe59 c8bc 1236 143e c619 023f 1dde 013d
00000080: ca2b 4d3f 8695 bdbd 5d3f bb3e 2e46 743e
00000090: 1fc4 bf3e de34 333e c79b 3c3f af9c 13be
000000a0: a62f 9a3f c0a9 0cbf b0e8 c9bd 4861 6f3d
000000b0: 6e1f 4a3b a6fa ba3e 833a 98bd 812c 4e3e
000000c0: 661b 90bc 17f8 763e 9772 3abc ba88 5d3e
000000d0: e38b 1fbd 8198 203e 7345 e2bc 50b7 9a3d
000000e0: 8aee 1cbb ee3a 8f3d c91b a93c a906 e63b
000000f0: 387a 26bd 9449 e93d ced3 03bd 5da9 ab3d
00000100: 1c6f 743c 01c7 d8be 1a01 4e3d 412b cdbd
00000110: 35d2 3cbd 9547 083e 3c60 febc f14e fb3d
00000120: 0b44 aabd 09fa b3be a295 ebbd 8a15 a7bf
00000130: 36f7 02bc 0e28 4c3e a51f 8c3d a4ae c53d
00000140: 3878 56bb f7ae 22be 4029 a93d 5b04 bfbf
00000150: e649 7fbe 4c17 963d 942b 663c a85f 663f
00000160: 6523 8d3c 1782 013f 6e35 003c cde7 8f3e
00000170: c9ee 4cbc 7aef 4b3e 13ca f23c 949a 563e
00000180: 637b debb 46b7 1a3e 774d 1ebd 561c c43d
00000190: b531 4bbc d818 14c0 1855 493c 6b9e 1f3e
000001a0: 98b1 2e3b 4a4d 0c3e 074d e4bc 1daa 193e
000001b0: e687 cabc 5935 043e d8c5 1cbd 35f8 d33d
000001c0: 3512 013c 4f1f e53d fb65 b83d c7a6 163e
000001d0: 21b4 c93d 18bb ed3d ba6b 8bbd f009 1d3d
000001e0: 675b 36bd 9d0c bd3d 5f2a 053c 9f9a 863d
000001f0: 5816 f13c eb7d c33c 8c7f 8b3e 69bd 8cbe
00000200: a114 043c af5c 08be 79c5 143e 6954 0ebd
00000210: 279f 4d3c 8645 6bbd 6c4a 113d 0286 37be
00000220: ceb3 2d3d 54a3 59be 00bd e13c e665 14be
00000230: 2978 f3bb 1edf 52be e5c9 9e3d a945 d2bd
00000240: 3d25 92bc 387f 6fbe 42c7 5a3c ed40 573e
00000250: b00a 2cbd 88ff 1b3f 5695 60bb 7fdb a73f
00000260: 02cf 1fbd 19cf 3abe 7f63 2b3d 75db 0b3e
00000270: 0039 103e 83a0 393f 4861 073e ab2a ea3f
00000280: 00a2 8fbd 6daf b9bd aba5 e2bd 74fe 5f3e
00000290: a4f5 053e 3b3b fc3e fcb6 1b3e 0c1f 9b3f
000002a0: 70e6 0cbd ab5f 94be e87b 43bd 2241 1c3e
000002b0: 8900 b7bd 2104 893e 976d 29be d4e1 be3e
000002c0: cf77 ecbe 048f bc3e ae1a bb3e a131 1a3e
000002d0: 06c4 3e3e f5a0 cf3d dbac 7b3d fa9f 85bd
000002e0: 9020 16be 6924 91be 09dd a33e 92f0 753e
000002f0: 3b56 5e3b 3c5a 1e3e 6a27 06bf 1531 74bd
00000300: 6be7 4fbf 1956 81bd c70c e13d 3a93 9d3e
00000310: 2f6f 15be f92a 5a3e 1942 48bf 996f 3ebe
00000320: 49d1 93bf 02d0 e1be 8653 3cbe 133f cb3e
00000330: 38cb 1abe 101e 653e 0636 1abf 936d 013d
00000340: 66d2 71bf 0f46 2a3e a4ab 85be 1821 e4bd
00000350: 9e53 963c 5f5d 9c3f 0b65 8f3e 2eac 653e
00000360: 729c ae3e 04b1 fa3d 6758 a23e 25ef bf3e
00000370: ff58 3d3e 88b0 a6be 4316 5d3d f680 133e
00000380: 5e76 bbbc df9e b43e e8c1 01be 2461 ad3e
00000390: 8d3e 313e 74e4 fabe 417c a2bc 184d 643e
000003a0: 617a bfbd bc39 003f 81cd 34be 99da 2c3f
000003b0: c9d7 3f3d d1ad 02bf 369a b4bc f4a0 87bc
000003c0: 37bd 21be c264 983e 0ca7 17be 2e41 1c3f
000003d0: 5672 b03d 5b84 5bbf ec93 dc3b 7f99 84bd
000003e0: ccd3 23be dbc6 a03e 11c0 d3bc 8464 d23e
000003f0: 409f 223d 545b 073e 1a8d 7cbd 62f6 563f

sequential/dense_1/MatMul f4 [10, 20]
0.25227007 0.072372854 1.2711694 0.029641127 -0.15562233 -0.19462967 0.186646 0.722371
0.6646792 0.4575138 0.09069745 -0.018959958 0.30017307 0.03970778 -0.0014612953 0.1913062
-0.7195457 -1.0281991 -0.039175622 1.5813744 0.508563 -0.07426844 1.2922865 1.2336274
0.8718836 0.6380077 0.0732455 0.3148739 -0.72270316 0.29454666 0.56345785 0.98171395
0.7683663 0.21299064 0.039603677 0.8614221 0.18645199 -0.039541367 -0.10573541 -0.09356147
-0.4116258 0.9366115 0.64613295 -0.91679484 0.058203638 -0.8761259 1.2361563 -0.34367913
1.2727616 0.23036896 -0.22412181 0.5411564 -0.1898938 -0.2818788 0.6492823 -0.23095988
-0.8204591 -0.5930101 0.473989 0.39554656 0.08227983 0.18497461 -0.8143355 0.027304826
0.2734809 0.52079207 -0.096325144 0.58585787 -1.6209104 1.7155977 -0.12501563 -0.020515604
1.1868954 1.0588259 0.637911 0.14396146 0.5820868 0.79745495 0.8975406 0.7318506
1.2556065 1.0446154 0.12464587 -0.4854855 0.5840365 -0.19893758 0.024375388 1.1651134
-0.008893134 -0.14223582 -0.13143846 0.48607033 -0.5330722 0.27752906 0.4087304 0.91783804
0.63131005 0.47201586 0.6304459 0.019172201 -0.023285005 0.519521 1.4360498 -1.0470537
0.040381104 -0.10776377 0.3177199 0.1560521 -0.73499423 0.44576088 -0.33870536 -0.0706831
-0.16689886 0.84611285 0.65069866 0.029815422 1.0965639 1.095744 0.64765227 -0.33133662
0.13888256 1.0007071 0.100430675 0.73414797 -0.19961989 0.8986821 -0.017977059 0.21248448
0.13424157 0.23362319 0.5734032 -0.13923919 0.5748404 1.2066058 -0.5037587 0.07102295
0.5245281 0.9142995 -0.52742463 0.23194766 0.28938237 -0.32067633 0.0659376 0.61095405
0.3451814 1.52204 -2.0543175 0.75258267 0.18909408 -0.29539704 1.0444533 0.19813149
0.61420524 0.98290735 0.19990653 0.13130197 0.79939663 0.7967385 0.19146936 0.6021013
0.1845842 1.1408645 0.29366815 -0.23975527 0.3822163 0.5938561 1.9854326 0.33904904
0.85928065 0.34813032 -0.61829007 0.4675867 -0.6164502 -0.14633134 0.8193433 0.21414787
0.05530244 -0.31214532 1.2287818 -0.085100554 0.5413897 -0.20246807 1.064989 0.21863338
1.101802 -0.36427772 1.1555184 0.51923937 1.8755196 0.09345026 0.6916924 1.3940157
-0.011474484 -0.3383473 0.06944853 1.1729597 0.51724535 0.5566695 -0.1152374 0.094844446
00000000: 8b29 813e 3838 943d aeb5 a23f f3d1 f23c
00000010: 765b 1fbe 004d 47be 2120 3f3e 4eed 383f
00000020: 6b28 2a3f 403f ea3e 96bf b93d ea51 9bbc
00000030: 49b0 993e a0a4 223d ef88 bfba c6e5 433e
00000040: 2634 38bf 079c 83bf 9e76 20bd 7a6a ca3f
00000050: 2f31 023f 0d1a 98bd a569 a53f 81e7 9d3f
00000060: c333 5f3f 7954 233f bd01 963d 2737 a13e
00000070: 1303 39bf d2ce 963e c63e 103f 9b51 7b3f
00000080: a7b3 443f 381a 5a3e 7737 223d 2986 5c3f
00000090: 45ed 3e3e 21f6 21bd ce8b d8bd 289d bfbd
000000a0: 9ec0 d2be c5c5 6f3f f868 253f 11b3 6abf
000000b0: f066 6e3d c949 60bf 5f3a 9e3f b6f6 afbe
000000c0: dae9 a23f d7e5 6b3e 3080 65be 3a89 0a3f
000000d0: 8573 42be 6b52 90be 5d37 263f bf80 6cbe
000000e0: 9c09 52bf 83cf 17bf b0ae f23e 1485 ca3e
000000f0: 5482 a83d fc69 3d3e 4b78 50bf 5fae df3c
00000100: b005 8c3e a152 053f 1e46 c5bd c8fa 153f
00000110: fe79 cfbf b598 db3f 1904 00be 5710 a8bc
00000120: 30ec 973f 9b87 873f 234e 233f a26a 133e
00000130: a403 153f 0226 4c3f 39c5 653f 905a 3b3f
00000140: b7b7 a03f f5b5 853f 5546 ff3d 8e91 f8be
00000150: 6b83 153f 4bb6 4bbe e5ae c73c 7022 953f
00000160: 82b4 11bc 44a6 11be ce97 06be 36de f83e
00000170: 6b77 08bf 4a18 8e3e 1c45 d13e 6ff7 6a3f
00000180: 899d 213f 10ac f13e e764 213f 050f 9d3c
00000190: 32c0 bebc 54ff 043f 7bd0 b73f db05 86bf
000001a0: a866 253d 40b3 dcbd 2fac a23e 1fcc 1f3e
000001b0: 9528 3cbf c53a e43e ca6a adbe 4dc2 90bd
000001c0: 89e7 2abe da9a 583f 3094 263f 793f f43c
000001d0: 355c 8c3f 5741 8c3f 8acc 253f f4a4 a9be
000001e0: 3b37 0e3e 2c17 803f 99ae cd3d 1ff1 3b3f
000001f0: 2869 4cbe 0810 663f a044 93bc 8895 593e
00000200: 9f76 093e eb3a 6f3e 8dca 123f b894 0ebe
00000210: be28 133f 0f72 9a3f 55f6 00bf 7b74 913d
00000220: 7947 063f 880f 6a3f 4d05 07bf b083 6d3e
00000230: ed29 943e b02f a4be 4b0a 873d 7c67 1c3f
00000240: 9ebb b03e 35d2 c23f f079 03c0 42a9 403f
00000250: e1a1 413e 483e 97be a5b0 853f fbe2 4a3e
00000260: 8e3c 1d3f d19f 7b3f 4cb4 4c3e 0674 063e
00000270: 42a5 4c3f 0ef7 4b3f 8b10 443e 5023 1a3f
00000280: a403 3d3e d907 923f ac5b 963e 6882 75be
00000290: dbb1 c33e f406 183f a822 fe3f d697 ad3e
000002a0: d1f9 5b3f 233e b23e 4248 1ebf 8667 ef3e
000002b0: aecf 1dbf e2d7 15be 7cc0 513f 9449 5b3e
000002c0: d084 623d 83d1 9fbe b948 9d3f 3349 aebd
000002d0: 8498 0a3f ca53 4fbe 8f51 883f 6ee1 5f3e
000002e0: d907 8d3f 9c82 babe 07e8 933f dfec 043f
000002f0: 0711 f03f da62 bf3d c112 313f 1b6f b23f
00000300: 79ff 3bbc db3b adbe 083b 8e3d 8b23 963f
00000310: 316a 043f e481 0e3f 9601 ecbd ce3d c23d

sequential/dense_2/MatMul f4 [26, 10]
0.16909389 -0.7159554 -0.59498394 0.43025896 -0.11252886 0.21612863 0.007853766 0.21106505
0.15170617 -0.39051038 0.021951409 -0.2403929 0.091885746 -0.6259557 0.46137065 -0.15684444
-0.09329389 -0.3968017 0.6885248 0.10543883 -0.5635149 -0.2543958 -0.26680303 -0.23510917
0.5070346 0.3740249 0.26076385 -0.8305377 0.50255466 0.4211667 -0.3867834 0.035763916
0.028447121 -0.5156773 -0.62097174 0.9821287 -0.8076161 -0.13838674 -0.57493764 -0.32068136
-0.5576585 -0.37489772 0.48430082 0.24327171 -0.33969903 0.05614447 0.15338553 -1.207586
0.28254598 -0.6344618 -1.3070625 -1.3751935 0.12410454 -0.56855506 0.32493874 0.12502177
0.21611986 -0.19627906 0.68677324 0.48527735 0.50073665 0.060629643 -0.45617473 -0.8889722
0.03698122 -1.3718938 -0.13947663 0.24133387 -1.0124428 0.626956 0.3066054 -0.04978294
-0.13191167 -0.95083654 0.3126906 -1.5372435 -0.6324184 0.28796488 -1.0190803 0.68040925
-0.8249041 -0.2005616 -0.3017474 0.31304708 0.83214325 0.030792788 0.01334935 -0.43938267
0.086311944 -1.1184086 -0.99318266 -0.5230942 -1.2588439 -1.2144299 -1.1163362 -1.0442683
-0.46998435 -1.5021065 -0.6952247 -0.6620673 0.5538943 -0.0064359563 0.36783734 -0.44262227
-0.46289954 -0.57673204 -0.9418992 -0.85893327 0.27002436 0.17908064 0.2750097 -0.443979
-0.31190127 -0.51836336 -0.09997422 0.9072972 0.179163 0.28689772 -0.47964814 -0.2825501
-0.26113117 -0.029848427 0.036503628 0.5865332 -0.35857597 -0.23473497 -0.00362918 0.00991957
0.07537728 -0.73519224 -0.1452926 -0.23116292 0.4906482 0.7192832 -1.3680762 -0.38645372
-0.42104834 0.054422304 -0.314262 -2.063096 -0.70312613 0.04254564 -0.32657427 0.35614055
0.5348895 0.085129075 0.076823875 -1.1107726 0.30475965 0.22031838 0.3396397 0.6359889
-0.9011121 -0.5159429 -0.2557493 -0.32143956 0.039181173 0.25639382 -0.6997843 0.17859454
0.004509765 0.40341958 -0.8273831 -0.33216438 -0.277024 -0.50536907 0.48809898 0.19078206
-0.42551044 0.26330853 0.4630705 -0.79937804 0.8362429 -0.88928807 -1.134633 0.32082778
-0.76596683 -1.1357032 0.08905887 -0.17072271 0.24152556 -0.5964546 0.29153052 0.36827192
-0.46395501 0.13518292 -0.06622472 -0.7476557 0.17104225 -1.2885182 0.23773447 -0.40067026
-0.3572644 0.54879725 -0.9085879 0.2701471 -0.42120555 0.16153221 -0.30458918 -1.0150833
0.40510684 -0.259063 0.36331776 -0.64814305 -0.3972812 -0.20094259 -0.9271039 -0.80643165
0.30334413 0.18264225 0.38812196 -0.07531678 0.36375168 -0.6662964 -0.45872948 -0.45899728
-0.83580905 -0.70103157 0.34739044 0.15001789 -0.2544095 -0.10352769 0.6718149 -0.8473218
0.29925522 -0.18499105 -0.43987784 -0.5576765 0.2924525 0.09939825 0.26043376 0.2410347
-0.17846611 -0.043277904 -0.5959021 0.4839097 -0.41170743 -0.1932815 -0.91189677 -0.3987659
0.22116977 -1.0994785 -0.57727414 0.3865696 0.9059264 0.13988493 0.3473598 -0.11342712
-0.030702932 -0.6321932 -0.90141684 -1.0042841 -0.87137157 -1.0180604 -0.7342074 -0.7407664
00000000: f326 2d3e da48 37bf de50 18bf e74a dc3e
00000010: 8875 e6bd d350 5d3e 15ad 003c 7021 583e
00000020: dd58 1b3e faf0 c7be 71d3 b33c 8e29 76be
00000030: 982e bc3d a23e 20bf c638 ec3e d49b 20be
00000040: de10 bfbd 9829 cbbe 2943 303f 50f0 d73d
00000050: 8342 10bf 2b40 82be 689a 88be 75c0 70be
00000060: 05cd 013f 3180 bf3e d782 853e 1e9e 54bf
00000070: 6ca7 003f 29a3 d73e 7908 c6be 2f7d 123d
00000080: f009 e93c 6d03 04bf 01f8 1ebf c96c 7b3f
00000090: eebf 4ebf 41b5 0dbe 1d2f 13bf 5930 a4be
000000a0: b5c2 0ebf 98f2 bfbe 47f6 f73e 381c 793e
000000b0: 08ed adbe bef7 653d 1911 1d3e 2e92 9abf
000000c0: dea9 903e 176c 22bf d34d a7bf 5706 b0bf
000000d0: 852a fe3d d38c 11bf 5f5e a63e b505 003e
000000e0: 864e 5d3e 61fd 48be 5fd0 2f3f 4676 f83e
000000f0: 4730 003f ca56 783d bc8f e9be af93 63bf
00000100: 9f79 173d 379a afbf f6d2 0ebe 3a20 773e
00000110: ba97 81bf 3080 203f 62fb 9c3e 32e9 4bbd
00000120: da13 07be 066a 73bf fb18 a03e 65c4 c4bf
00000130: 2ce6 21bf 2270 933e 3971 82bf 4d2f 2e3f
00000140: ea2c 53bf 0560 4dbe a37e 9abe b547 a03e
00000150: 5707 553f 2841 fc3c 3bb7 5a3c c4f6 e0be
00000160: 51c4 b03d 0328 8fbf 3841 7ebf 80e9 05bf
00000170: cc21 a1bf 7072 9bbf 1be4 8ebf 95aa 85bf
00000180: caa1 f0be 0745 c0bf 3ffa 31bf 3e7d 29bf
00000190: 04cc 0d3f b7e4 d2bb 2d55 bc3e 639f e2be
000001a0: 2b01 edbe b6a4 13bf 4e20 71bf 0de3 5bbf
000001b0: a240 8a3e ea60 373e 12ce 8c3e 3751 e3be
000001c0: 86b1 9fbe 76b3 04bf 49bf ccbd a144 683f
000001d0: 8176 373e 42e4 923e 7194 f5be 68aa 90be
000001e0: fcb2 85be b084 f4bc d484 153d 0a27 163f
000001f0: 4597 b7be 5d5e 70be 89d7 6dbb b185 223c
00000200: 675f 9a3d 8f35 3cbf 95c7 14be f9b5 6cbe
00000210: 3e36 fb3e f222 383f 1f1d afbf 43dd c5be
00000220: a693 d7be ece9 5e3d f3e6 a0be c409 04c0
00000230: 1300 34bf 5644 2e3d be34 a7be 0e58 b63e
00000240: 85ee 083f 2758 ae3d d655 9d3d cc2d 8ebf
00000250: 7509 9c3e 249b 613e 41e5 ad3e 2bd0 223f
00000260: 48af 66bf d514 04bf 92f1 82be ba93 a4be
00000270: 707c 203d 0d46 833e 1025 33bf 7de1 363e
00000280: a7c6 933b 038d ce3e 61cf 53bf 7311 aabe
00000290: 17d6 8dbe de5f 01bf 1ce8 f93e 5f5c 433e
000002a0: 81dc d9be 60d0 863e 9417 ed3e 0aa4 4cbf
000002b0: 0414 563f 62a8 63bf a73b 91bf 8a43 a43e
000002c0: 6716 44bf b95e 91bf 7f64 b63d efd1 2ebe
000002d0: 7a52 773e 40b1 18bf 7d43 953e 238e bc3e
000002e0: 838b edbe 646d 0a3e d3a0 87bd 5d66 3fbf
000002f0: b325 2f3e 2aee a4bf aa70 733e a724 cdbe
00000300: 5ceb b6be fa7d 0c3f 3799 68bf b850 8a3e
00000310: 41a8 d7be b368 253e 1df3 9bbe 40ee 81bf
00000320: 2a6a cf3e e8a3 84be c904 ba3e b4ec 25bf
00000330: 7168 cbbe e5c3 4dbe ae56 6dbf 4e72 4ebf
00000340: ec4f 9b3e 9206 3b3e ecb7 c63e af3f 9abd
00000350: a93d ba3e 6792 2abf 97de eabe b101 ebbe
00000360: 95f7 55bf ce76 33bf 29dd b13e 4a9e 193e
00000370: f641 82be 5306 d4bd 10fc 2b3f 15ea 58bf
00000380: fb37 993e 4b6e 3dbe ab37 e1be e3c3 0ebf
00000390: 56bc 953e 4f91 cb3d 9357 853e cdd1 763e
000003a0: d2bf 36be 2c44 31bd 0a8d 18bf 03c3 f73e
000003b0: 51cb d2be 96eb 45be 1172 69bf 0b2b ccbe
000003c0: 547a 623e b6bb 8cbf 3dc8 13bf 73ec c53e
000003d0: cbea 673f ff3d 0f3e 25d9 b13e 7a4c e8bd
000003e0: b784 fbbc 6ad7 21bf 41c3 66bf 628c 80bf
000003f0: 3512 5fbf ce4f 82bf 04f5 3bbf dea2 3dbf
